model_data/deep.pth (torch, 8113 bytes, 5 tensors)

net.0.weight f4 [20, 41]
00000000: 1e88 0b3d c335 593d ff30 943d fd4e 293d
00000010: 50a0 18be 63f9 143e bd49 eabd ade2 05bd
00000020: a430 fd3b 96c6 acbd cb04 0a3d 4c1a fe3d
00000030: a1b0 14be 5c9a 08be e6ac 30bd 9ef3 203d
00000040: aac7 35bd 06aa 0f3e 191b a2bd 365f 873d
00000050: 8ea0 aabd 474b ca3d 9b91 12bc 2ac6 c33d
00000060: 9090 debc 8c20 ce3d 5cac 27bb b068 973d
00000070: b57d f13d 272a c5bc 1f58 1c3e c6cc ffbd
00000080: 33e8 f53c cad1 d2bd 6fd1 17be fd0d bc3d
00000090: 6095 fdbd dde6 1fbe 0c5d 083e c7aa 04be
000000a0: 1621 5d3d 677b fa3c ded6 83bd dee4 e73d
000000b0: 9887 86bd 2559 4bbc 11fb ec3d bdc8 a93d
000000c0: 67e7 063e c98e 1cbe 1a0c ae3d 1d27 d0bb
000000d0: 561c 14bc 80ab 9ebd f2e2 1b3d 4f0f d03d
000000e0: f729 6e3d 614b 8c3d 6d09 ae3d 02ff 62bd
000000f0: a156 e03d 8483 67bd 9988 59bc d7ba 003e
00000100: 180f e8bd 75d0 d9bd f741 94bd 1464 dcbd
00000110: de8d 123e d466 6bbd b27e 74bc dcee c63c
00000120: 4b7f 92bc 89a6 abbd 19a7 03be 808f 86bd
00000130: f9f6 d4bd ea91 f63d b819 1ebd bd03 19be
00000140: 0c1a 923d f632 1abe 4f57 343c c019 1bbe
00000150: ff17 c03a 41c9 cabb 7fe5 953c 9dd0 fc3d
00000160: a17c da3d 6ca5 12bd 4f29 ccbc 887a 213d
00000170: 82e6 3f3d 9acc 123d fc35 72ba 4bb7 18bd
00000180: 0f92 aebc 2d25 b43c b072 16be a117 d23c
00000190: 180a 313d f3f4 753d 7faf 06bd 84b5 5e3d
000001a0: edb6 85bd 5173 93bd 9396 183d 2e01 023e
000001b0: 49e3 e4bd a85b 6fbd 0777 883d f191 8cbd
000001c0: bbba 6dbd 1a3b b7b9 7850 093e 7a16 ec3d
000001d0: 2d02 a3bd 6325 9d3c adeb 523c 0585 943d
000001e0: cf54 953d f177 983d eee2 fa3c 844f 733d
000001f0: 235a 40bc 420d f23c 9ed3 9e3c 8d5e e83d
00000200: 8bbc 1d3e 9bfb d2bd f3ee cdbd b767 01be
00000210: 1dfd bf3d 4967 d43d 17c7 4d3d 84ed 08bd
00000220: 424c 963d 3365 0abe e935 cb3d f20f 0bbe
00000230: ba5b 083c ecb1 e93d 5687 9ebd cce2 213d
00000240: e2ad d4bd b960 e53d b157 dc3d 3f7d 0cbe
00000250: 3a90 013e 232a 08be bdd4 1ebe 5092 dcbd
00000260: a2de 963c e1a7 73bd 667c 9bbc 5841 0ebe
00000270: b801 b63d 5fc6 19be 865e b83d 1127 18bd
00000280: 09f0 a63d 1c6d 3b3d c714 af3d a474 853d
00000290: 0135 05bd 0a5c a53d a1d2 e93d 9a4a 21bd
000002a0: 7a4c 883d e6cf e43d afed 8b3d 9773 e0bc
000002b0: ca6d 3d3d 5f2e fc3c 8105 bdbc 1d4d 22bd
000002c0: 8565 dc3b 204c b23b 58a4 f5bc 7468 f93d
000002d0: c75f 87bc bdf9 cebc a54c 153e 841a aabc
000002e0: 3f2b 9b3d fbb4 e43d 52c2 c2bc 04fa eebd
000002f0: 593f bcbd 1e14 f03d 48c8 bdbd 1776 0d3e
00000300: 6dad f3bd bcbd 79bd 2816 043e 20fa 0ebe
00000310: 4387 06bd b910 cbbd 1ea5 743b a1a1 1dbe
00000320: 6f8e 6dbd 7e0d 1d3d 7b64 13bd c790 a5bb
00000330: 25ab f5bd 47ab f13d 81cf 1e3d 1e47 df3c
00000340: 85df 86bd 0061 883d 3837 ac3d d5a7 0e3c
00000350: 90d8 ac3d 9d15 c53d 2131 9c3c 2136 083e
00000360: e061 8ebd d691 a33d d969 bd3d 2d47 a43d
00000370: 6744 0f3e c01d 1f3e 6803 0fbe 06cc c53d
00000380: 7281 76bd 0e20 d73d 73e1 d93d 5b14 97bc
00000390: 3d94 663d bc56 89bc 5242 393d 40df 5bbd
000003a0: 9f7f 90bd 1062 b0bd 7f34 1fbe 60e9 1cbc
000003b0: 725c 053e cdbb 653d ad7b 013e e92d c4bd
000003c0: c6f4 db3d a3ba b4bd df06 9fbc 832c 2cbd
000003d0: 2abc 0b3e 00b9 bcbd 12d2 f3bc cafa 0a3e
000003e0: fece eb3d 1a65 90bc e2a9 9ebd b706 afbd
000003f0: 151c 0f3e 7cca 33bd 3a73 c6bd 1f05 c33d
0.03406536 0.053029787 0.07235908 0.041335095 -0.14904904 0.14548258 -0.11439846 -0.032686878
0.0077267457 -0.08436315 0.033695977 0.124073595 -0.14520504 -0.13340133 -0.04313364 0.03929483
-0.044379868 0.14029703 -0.07915325 0.06609957 -0.083314046 0.09877639 -0.008945848 0.09559281
-0.027168542 0.100648016 -0.0025584912 0.073930144 0.11791555 -0.024067951 0.1526799 -0.12490229
0.030017948 -0.1029392 -0.14825986 0.091823556 -0.12382007 -0.15615411 0.13316745 -0.12955771
0.05398663 0.030576421 -0.06437467 0.1132295 -0.06568831 -0.01241139 0.115713246 0.08290241
0.1317421 -0.15288843 0.08498402 -0.006352319 -0.009039959 -0.07747555 0.03805823 0.1015917
0.05814549 0.06850315 0.084978916 -0.055418976 0.10954023 -0.056521907 -0.013277196 0.12571274
-0.11331004 -0.10635463 -0.07239144 -0.10761276 0.1431193 -0.05747111 -0.014922785 0.024283819
-0.017882964 -0.083813734 -0.12856711 -0.06570339 -0.10398669 0.1203955 -0.038598746 -0.14942832
0.07133874 -0.15058503 0.011007144 -0.15146542 0.0014655589 -0.006188542 0.018297909 0.12344477
0.10668302 -0.03580229 -0.024922041 0.039423496 0.04685069 0.035839655 -0.00092396117 -0.037284177
-0.02130988 0.021990383 -0.14692187 0.025646033 0.043222517 0.060048055 -0.03288221 0.054372326
-0.06529031 -0.07199729 0.037252974 0.12695763 -0.11176164 -0.05843702 0.06663328 -0.068637736
-0.05803941 -0.00034948514 0.13409603 0.115277246 -0.07959399 0.019182866 0.012873572 0.07251934
0.072915666 0.07444752 0.030625787 0.059402004 -0.01174024 0.029547337 0.019388016 0.11346159
0.15403955 -0.10301896 -0.100553416 -0.1263722 0.093744494 0.103712626 0.050238695 -0.033429638
0.07338764 -0.13515167 0.09922392 -0.13580301 0.008322651 0.11410889 -0.07740657 0.03952293
-0.10384728 0.11200089 0.10758913 -0.13719653 0.12652674 -0.13297324 -0.1551084 -0.107700944
0.018416706 -0.059486274 -0.018980216 -0.13892114 0.088870466 -0.15017079 0.09002404 -0.03714663
0.08151252 0.04575835 0.08548885 0.06516388 -0.03252125 0.08074196 0.114171274 -0.039377786
0.06655212 0.11172466 0.06832444 -0.027398868 0.04624728 0.03078383 -0.023073914 -0.039624322
0.0067259693 0.0054412037 -0.029985592 0.12178126 -0.016525162 -0.025265569 0.14580019 -0.020764597
0.07576608 0.11167332 -0.0237743 -0.116687804 -0.0919177 0.11722587 -0.09266716 0.13814579
-0.11898313 -0.06097196 0.12899077 -0.13962603 -0.03284384 -0.09915299 0.0037329863 -0.15393688
-0.057997163 0.038342945 -0.035984498 -0.005052659 -0.11995534 0.11800247 0.03877211 0.027255591
-0.06585602 0.06659126 0.0840897 0.008707006 0.084397435 0.09623263 0.019066395 0.13301899
-0.06952262 0.079868004 0.092487045 0.08021388 0.13990937 0.15538692 -0.13966143 0.09658055
-0.060182042 0.10504161 0.10638704 -0.018442323 0.056293715 -0.016764991 0.045229264 -0.053679705
-0.07055592 -0.08612454 -0.1554737 -0.009577125 0.13023546 0.056087304 0.12644835 -0.09579069
0.10740046 -0.08824661 -0.019412456 -0.042034637 0.13645998 -0.092149734 -0.029763255 0.13572231
0.1151409 -0.017626334 -0.07747246 -0.08546203 0.13975556 -0.043894276 -0.096899465 0.09522461

net.0.bias f4 [20]
00000000: 4247 06be 9640 143e 8285 d13d d8cb 9f3d
00000010: 69e6 f1bd d4d4 5f3d fd72 af3c e7c9 3ebd
00000020: 2829 f7bd 6be6 1f3e 5e5b 9abd 585e b53d
00000030: 03a7 1d3d ec92 efbc b259 98bd 8de4 ad3c
00000040: 26d0 14be a821 d1bc 29db d1bd 1a59 9bbc
-0.1311312 0.14477763 0.10230543 0.07802552 -0.118115254 0.054646328 0.021417135 -0.046579268
-0.12068397 0.15615241 -0.07536958 0.08855885 0.038489353 -0.029244862 -0.07438983 0.021227146
-0.14532527 -0.025528744 -0.102468796 -0.018963385

net.3.weight f4 [20, 20]
00000000: 14eb 063c 877a f1bd 99f1 f03d a4a3 fe3a
00000010: 0f0e 4d3e ae50 173d a7df ea3d 6d24 5cbe
00000020: 326b 843d 3dd4 4bbd aafc b53c d451 febd
00000030: f694 2ebe 5af8 573e bab2 143e 6f98 6eba
00000040: 680a dbbd 5694 283d 3f0e 513d bba9 2f3e
00000050: e4ab a53d 6b44 4c3e 8afa 39be d49a 34be
00000060: 83de 633d 6763 3cbe 13d3 26be dbd1 28bd
00000070: ef27 333e 9fb1 853d b1a5 74bd 2338 5dbe
00000080: f88d acbd 1580 46be f471 b5bd 6049 27be
00000090: dae3 dcbd 557b e5bd e55e 473d 5a9c 633c
000000a0: d80a 193d 8468 a5bd 562e 3fbe 153a 5a3e
000000b0: 6d7f 463d 09f8 3b3e ecbb 383e cc4f 483e
000000c0: 9fb2 02bd 9572 513e 121f c4bd 9602 c6bd
000000d0: 1c03 5d3e 08b6 a9bd c8df 9ebd 1930 c4bc
000000e0: 9b60 263e 97fc 36be 799d 3e3e 759a c0bd
000000f0: 1bb6 f9bd dfa9 d63d 1fb2 4dbe 02e2 093e
00000100: c627 c3ba ca9e debd 7797 19bc 59a1 203e
00000110: 4488 773d 753d 613e 13d1 633e 9c29 22bc
00000120: 7302 ffbb e04d 4d3e f257 05be 92a8 36be
00000130: c690 1ebe 2ba0 2a3e 9b84 063e ae3d 013e
00000140: 9399 52be 85fd 8d3b ad84 a4bc db7f 4b3d
00000150: 679c 23bd 3e30 bf3d e019 15be 9627 3c3e
00000160: d8ba 86bd 6898 58be f0d4 2c3e 4395 9cbd
00000170: 4bef c3bd e5f9 6c3d 95da 5d3e 8981 3e3e
00000180: 3506 c0bd a0dd eebd f03a fd3d 55ca 4bbe
00000190: 96ca 8fbc e318 c83d 474d 523e 20f5 f23d
000001a0: 4caf 6f3d def6 c9bd 2f2d 133e bd80 26bd
000001b0: 56f3 883d 4936 1cbb 7820 8a3d 2425 b3bd
000001c0: 76d1 493e 3cf3 8dbc 4eef eabd 71d4 ed3c
000001d0: aea1 cbbd 64cc ed3c 1d7e 363d 5558 1a3e
000001e0: 3bb7 1cbd 4367 563e 1cf2 2cbe 9b64 0c3e
000001f0: bbfe c73d 58bc 603e c242 0abe 0aca 6bbd
00000200: a3d1 15be 6f09 403e 44ef 423d 0f9f 17be
00000210: 623c dabb 017e 243e 3cf9 ddbd 737d 46be
00000220: 6256 a33d dfbb 4fbe f3b4 5cbe 6893 163d
00000230: 875d fcbd be32 46bc 4596 e9bd e85f 1c3c
00000240: 6238 113e 00ca e1bc d1ad a03d 30cb 4d3e
00000250: d898 19be c490 e33d 2c4b e83d df1f 693d
00000260: ccac 2bbd 82df 01be 46f3 df3d 1fa6 04be
00000270: 77cc b03b f538 c33c 1c73 3f3e e021 423e
00000280: 63d9 5d3e 79a0 173e d696 1fbd 1d83 593d
00000290: 2779 763d 47bc 3f3e 1ad1 38bc cf49 503e
000002a0: 7d48 273e 4993 4abe a3f1 ab3c 30f9 173e
000002b0: 926d 0b3d d574 043e e40a 953d 35a7 52be
000002c0: 3d71 473e 74fa 2c3e 450a 4c3e fbd7 df3d
000002d0: ebc1 353d 851c 35be 9e35 863d a1ed a3ba
000002e0: fe7d a33c 989d d33d f2a2 94bb ae1c c8bd
000002f0: 0bd8 aebc 5867 dbba 0557 79bc 969a 2fbe
00000300: 4f60 13bd 2392 ebbd 0081 9dbb b883 fc3c
00000310: f2f2 a73d 9aa9 083d a2f2 c2bc 12b8 14be
00000320: 4a07 393d 9fd2 4abe 3a14 f63d f656 4bbe
00000330: 7639 5bbe 9c5e 25be 7085 a1bd d98b fd3d
00000340: 6435 49bd 0bfc 793d fed9 043e a783 b2bd
00000350: da95 62be 3073 df3d a614 273e 60a5 d7bd
00000360: d983 32be 0c44 6dbd 04eb c23d 2e9f 5ebe
00000370: bd95 643e ca1b ba3c 8d96 8d3c 926a c4bd
00000380: 6f96 4dbe 2902 4cbe f747 45be 52ea 38bd
00000390: 85ea 2fbd db99 91bc 2b2e 71bd 6c10 83bd
000003a0: 9dff e0bd fbfa 04be 1a1d 233e e237 31be
000003b0: a855 2cbd 972d 383e 2c77 d03c 1438 1a3e
000003c0: a55c 3d3e fa58 05bd 70b0 223e 42d7 38bd
000003d0: fe58 2b3c 0644 3b3d adbb 22bc ed1f 4a3e
000003e0: 4eb9 933d aca3 ca3d 4bfc 35bc 85d2 8e3d
000003f0: 2390 53bc 4722 b53d df10 f63d b1aa 2dbe
0.008234758 -0.11790948 0.11764831 0.0019427431 0.20024894 0.036942177 0.114684395 -0.2149827
0.064657584 -0.049762953 0.022215206 -0.12417951 -0.17049012 0.21090832 0.14521304 -0.0009101694
-0.10695344 0.04115709 0.051038977 0.17154591 0.08089426 0.19947974 -0.1816198 -0.17637187
0.055632126 -0.18397294 -0.16291456 -0.04121576 0.17495702 0.06528019 -0.05972833 -0.21603446
-0.08425516 -0.19384797 -0.088596255 -0.16336584 -0.10785647 -0.11205164 0.048674483 0.013892258
0.037363857 -0.080765754 -0.1867002 0.21311219 0.048461366 0.18356337 0.18040437 0.1956169
-0.031908628 0.20453866 -0.09576239 -0.09668462 0.21583217 -0.08286673 -0.07757527 -0.023948716
0.1624779 -0.17869793 0.18614759 -0.0940446 -0.12192937 0.10481619 -0.20087479 0.13465121
-0.0014889173 -0.1087013 -0.009374491 0.15686549 0.060432687 0.219961 0.22247724 -0.009897616
-0.0077822744 0.20049238 -0.1302183 -0.17837742 -0.15484914 0.16662662 0.13136522 0.12621185
-0.20566396 0.0043332004 -0.020082796 0.04968248 -0.03994408 0.09335373 -0.14560652 0.18374476
-0.06578606 -0.21151888 0.16878104 -0.07645657 -0.09567126 0.057855505 0.21665414 0.18604101
-0.09376184 -0.11663365 0.12364757 -0.19901402 -0.017552655 0.09770372 0.20537291 0.1186316
0.058516786 -0.09861539 0.14372705 -0.04065012 0.06687038 -0.0023836067 0.06744474 -0.087473184
0.1970881 -0.017327897 -0.11471425 0.029031964 -0.09942947 0.029028125 0.044553865 0.15072758
-0.03826068 0.20937829 -0.16889232 0.13710253 0.09765383 0.21946847 -0.13502029 -0.057565726
-0.14630751 0.18753599 0.047591463 -0.1480677 -0.00666003 0.16063692 -0.10838553 -0.19383793
0.079754606 -0.20286511 -0.21553402 0.03676167 -0.123225264 -0.012097059 -0.11405615 0.00954435
0.14181665 -0.027562141 0.07845653 0.20097041 -0.14999712 0.11111596 0.11342463 0.05691516
-0.04191284 -0.12682918 0.109350726 -0.12953995 0.005395468 0.02383087 0.18696254 0.18958235
0.21664958 0.14807309 -0.038962208 0.053103555 0.060174134 0.18724166 -0.011280322 0.20340656
0.16336246 -0.19782747 0.020989245 0.14841151 0.03404004 0.12935193 0.07277468 -0.20571597
0.1947679 0.16892415 0.19925793 0.10929867 0.044374388 -0.1768666 0.065531954 -0.0012506732
0.019957539 0.10332793 -0.004536026 -0.09771095 -0.021343252 -0.0016739173 -0.015218501 -0.17148814
-0.03598052 -0.11502483 -0.0048066378 0.030824527 0.08200635 0.03336487 -0.023797337 -0.14523342
0.045172967 -0.19806908 0.12015577 -0.19857392 -0.21408638 -0.16149372 -0.07886779 0.123801894
-0.049123183 0.061031383 0.12973782 -0.08716517 -0.22127476 0.10910642 0.1631647 -0.1052959
-0.17433108 -0.057926223 0.09517482 -0.2174041 0.22322746 0.022718329 0.017283702 -0.09590639
-0.20076917 -0.19922699 -0.19265734 -0.04514534 -0.042948265 -0.01777356 -0.05888192 -0.063996166
-0.10986254 -0.12986366 0.1592907 -0.17306474 -0.042073876 0.17986141 0.02544745 0.15060455
0.18492372 -0.032555558 0.15887618 -0.04512716 0.010458229 0.04571917 -0.009932441 0.19738741
0.072130784 0.09894499 -0.011107515 0.06973747 -0.012912783 0.088444285 0.12014937 -0.16959645

net.3.bias f4 [20]
00000000: 5070 26be dfac 413e bda9 193d 0d7f fc3d
00000010: 2385 d3bd 5951 5b3e ca86 a73d 4abe 323e
00000020: 7069 19be 7b57 adbd a4c4 69bd cf63 f3bb
00000030: 103f 973d 3ffe 58bd 1d96 d1bd 1350 973c
00000040: b3c0 10be e15b 77bc 7180 37be 7eeb 0abe
-0.16253781 0.18913601 0.03751539 0.123289205 -0.10328128 0.2141775 0.08180006 0.17455402
-0.14981627 -0.08463951 -0.057072297 -0.0074276696 0.07385075 -0.052976843 -0.1023371 0.0184708
-0.14136009 -0.015097589 -0.1792009 -0.13566396

net.6.weight f4 [1, 20]
00000000: d5f1 ed3d e4f8 383e c5c9 f73d 3afe 5abe
00000010: 3c72 423e 1449 413e d349 9d3c 3f20 57bd
00000020: c354 e0bd 1180 b4bc dfac 553e e330 573d
00000030: a18e 2f3e 6971 af3d f0dc 0f3e bdad 073d
00000040: 2589 323e 3401 9cbd d17c 903d 21bf 3c3b
0.116183914 0.18063694 0.12099031 -0.21386042 0.1898889 0.18875533 0.019200241 -0.052520987
-0.10953667 -0.022033723 0.20866726 0.052536856 0.17144252 0.08566553 0.14049125 0.033124674
0.17435129 -0.07617417 0.07055057 0.0028800445
